…
data_aug=True, debug=False, downsampling_method='conv', gpu=0, lr=0.1, nepochs=120, network='odenet', save='./experiment_node1', test_batch_size=1000, tol=0.001)\n","Namespace(adjoint=False, batch_size=128, data_aug=True, debug=False, downsampling_method='conv', gpu=0, lr=0.1, nepochs=120, network='odenet', save='./experiment_node1', test_batch_size=1000, tol=0.001)\n","Namespace(adjoint=False, batch_size=128, data_aug=True, debug=False, downsampling_method='conv', gpu=0, lr=0.1, nepochs=120, network='odenet', save='./experiment_node1', test_batch_size=1000, tol=0.001)\n","Sequential(\n","  (0): Conv2d(1, 64, kernel_size=(3, 3), stride=(1, 1))\n","  (1): GroupNorm(32, 64, eps=1e-05, affine=True)\n","  (2): ReLU(inplace=True)\n","  (3): Conv2d(64, 64, kernel_size=(4, 4), stride=(2, 2), padding=(1, 1))\n","  (4): GroupNorm(32, 64, eps=1e-05, affine=True)\n","  (5): ReLU(inplace=True)\n","  (6): Conv2d(64, 64, kernel_size=(4, 4), stride=(2, 2), padding=(1, 1))\n","  (7): ODEBlock(\n","    (odefunc): ODEfunc(\n","      (norm1): GroupNorm(32, 64, eps=1e-05, affine=True)\n","      (relu): ReLU(inplace=True)\n","      (conv1): ConcatConv2d(\n","        (_layer): Conv2d(65, 64, kernel_size=(3, 3), stride=(1, 1), padding=(1, 1))\n","      )\n","      (norm2): GroupNorm(32, 64, eps=1e-05, affine=True)\n","      (conv2): ConcatConv2d(\n","        (_layer): Conv2d(65, 64, kernel_size=(3, 3), stride=(1, 1), padding=(1, 1))\n","      )\n","      (norm3): GroupNorm(32, 64, eps=1e-05, affine=True)\n","    )\n","  )\n","  (8): GroupNorm(32, 64, eps=1e-05, affine=True)\n","  (9): ReLU(inplace=True)\n","  (10): AdaptiveAvgPool2d(output_size=(1, 1))\n","  (11): Flatten()\n","  (12): Linear(in_features=64, out_features=10, bias=True)\n",")\n","Sequential(\n","  (0): Conv2d(1, 64, kernel_size=(3, 3), stride=(1, 1))\n","  (1): GroupNorm(32, 64, eps=1e-05, affine=True)\n","  (2): ReLU(inplace=True)\n","  (3): Conv2d(64, 64, kernel_size=(4, 4), stride=(2, 2), padding=(1, 1))\n","  (4): GroupNorm(32, 64, eps=1e-05, affine=True)\n","  (5): ReLU(inplace=True)\n","  (6): Conv2d(64, 64, kernel_size=(4, 4), stride=(2, 2), padding=(1, 1))\n","  (7): ODEBlock(\n","    (odefunc): ODEfunc(\n","      (norm1): GroupNorm(32, 64, eps=1e-05, affine=True)\n","      (relu): ReLU(inplace=True)\n","      (conv1): ConcatConv2d(\n","        (_layer): Conv2d(65, 64, kernel_size=(3, 3), stride=(1, 1), padding=(1, 1))\n","      )\n","      (norm2): GroupNorm(32, 64, eps=1e-05, affine=True)\n","      (conv2): ConcatConv2d(\n","        (_layer): Conv2d(65, 64, kernel_size=(3, 3), stride=(1, 1), padding=(1, 1))\n","      )\n","      (norm3): GroupNorm(32, 64, eps=1e-05, affine=True)\n","    )\n","  )\n","  (8): GroupNorm(32, 64, eps=1e-05, affine=True)\n","  (9): ReLU(inplace=True)\n","  (10): AdaptiveAvgPool2d(output_size=(1, 1))\n","  (11): Flatten()\n","  (12): Linear(in_features=64, out_features=10, bias=True)\n",")\n","Sequential(\n","  (0): Conv2d(1, 64, kernel_size=(3, 3), stride=(1, 1))\n","  (1): GroupNorm(32, 64, eps=1e-05, affine=True)\n","  (2): ReLU(inplace=True)\n","  (3): Conv2d(64, 64, kernel_size=(4, 4), stride=(2, 2), padding=(1, 1))\n","  (4): GroupNorm(32, 64, eps=1e-05, affine=True)\n","  (5): ReLU(inplace=True)\n","  (6): Conv2d(64, 64, kernel_size=(4, 4), stride=(2, 2), padding=(1, 1))\n","  (7): ODEBlock(\n","    (odefunc): ODEfunc(\n","      (norm1): GroupNorm(32, 64, eps=1e-05, affine=True)\n","      (relu): ReLU(inplace=True)\n","      (conv1): ConcatConv2d(\n","        (_layer): Conv2d(65, 64, kernel_size=(3, 3), stride=(1, 1), padding=(1, 1))\n","      )\n","      (norm2): GroupNorm(32, 64, eps=1e-05, affine=True)\n","      (conv2): ConcatConv2d(\n","        (_layer): Conv2d(65, 64, kernel_size=(3, 3), stride=(1, 1), padding=(1, 1))\n","      )\n","      (norm3): GroupNorm(32, 64, eps=1e-05, affine=True)\n","    )\n","  )\n","  (8): GroupNorm(32, 64, eps=1e-05, affine=True)\n","  (9): ReLU(inplace=True)\n","  (10): AdaptiveAvgPool2d(output_size=(1, 1))\n","  (11): Flatten()\n","  (12): Linear(in_features=64, out_features=10, bias=True)\n",")\n","Sequential(\n","  (0): Conv2d(1, 64, kernel_size=(3, 3), stride=(1, 1))\n","  (1): GroupNorm(32, 64, eps=1e-05, affine=True)\n","  (2): ReLU(inplace=True)\n","  (3): Conv2d(64, 64, kernel_size=(4, 4), stride=(2, 2), padding=(1, 1))\n","  (4): GroupNorm(32, 64, eps=1e-05, affine=True)\n","  (5): ReLU(inplace=True)\n","  (6): Conv2d(64, 64, kernel_size=(4, 4), stride=(2, 2), padding=(1, 1))\n","  (7): ODEBlock(\n","    (odefunc): ODEfunc(\n","      (norm1): GroupNorm(32, 64, eps=1e-05, affine=True)\n","      (relu): ReLU(inplace=True)\n","      (conv1): ConcatConv2d(\n","        (_layer): Conv2d(65, 64, kernel_size=(3, 3), stride=(1, 1), padding=(1, 1))\n","      )\n","      (norm2): GroupNorm(32, 64, eps=1e-05, affine=True)\n","      (conv2): ConcatConv2d(\n","        (_layer): Conv2d(65, 64, kernel_size=(3, 3), stride=(1, 1), padding=(1, 1))\n","      )\n","      (norm3): GroupNorm(32, 64, eps=1e-05, affine=True)\n","    )\n","  )\n","  (8): GroupNorm(32, 64, eps=1e-05, affine=True)\n","  (9): ReLU(inplace=True)\n","  (10): AdaptiveAvgPool2d(output_size=(1, 1))\n","  (11): Flatten()\n","  (12): Linear(in_features=64, out_features=10, bias=True)\n",")\n","Sequential(\n","  (0): Conv2d(1, 64, kernel_size=(3, 3), stride=(1, 1))\n","  (1): GroupNorm(32, 64, eps=1e-05, affine=True)\n","  (2): ReLU(inplace=True)\n","  (3): Conv2d(64, 64, kernel_size=(4, 4), stride=(2, 2), padding=(1, 1))\n","  (4): GroupNorm(32, 64, eps=1e-05, affine=True)\n","  (5): ReLU(inplace=True)\n","  (6): Conv2d(64, 64, kernel_size=(4, 4), stride=(2, 2), padding=(1, 1))\n","  (7): ODEBlock(\n","    (odefunc): ODEfunc(\n","      (norm1): GroupNorm(32, 64, eps=1e-05, affine=True)\n","      (relu): ReLU(inplace=True)\n","      (conv1): ConcatConv2d(\n","        (_layer): Conv2d(65, 64, kernel_size=(3, 3), stride=(1, 1), padding=(1, 1))\n","      )\n","      (norm2): GroupNorm(32, 64, eps=1e-05, affine=True)\n","      (conv2): ConcatConv2d(\n","        (_layer): Conv2d(65, 64, kernel_size=(3, 3), stride=(1, 1), padding=(1, 1))\n","      )\n","      (norm3): GroupNorm(32, 64, eps=1e-05, affine=True)\n","    )\n","  )\n","  (8): GroupNorm(32, 64, eps=1e-05, affine=True)\n","  (9): ReLU(inplace=True)\n","  (10): AdaptiveAvgPool2d(output_size=(1, 1))\n","  (11): Flatten()\n","  (12): Linear(in_features=64, out_features=10, bias=True)\n",")\n","Sequential(\n","  (0): Conv2d(1, 64, kernel_size=(3, 3), stride=(1, 1))\n","  (1): GroupNorm(32, 64, eps=1e-05, affine=True)\n","  (2): ReLU(inplace=True)\n","  (3): Conv2d(64, 64, kernel_size=(4, 4), stride=(2, 2), padding=(1, 1))\n","  (4): GroupNorm(32, 64, eps=1e-05, affine=True)\n","  (5): ReLU(inplace=True)\n","  (6): Conv2d(64, 64, kernel_size=(4, 4), stride=(2, 2), padding=(1, 1))\n","  (7): ODEBlock(\n","    (odefunc): ODEfunc(\n","      (norm1): GroupNorm(32, 64, eps=1e-05, affine=True)\n","      (relu): ReLU(inplace=True)\n","      (conv1): ConcatConv2d(\n","        (_layer): Conv2d(65, 64, kernel_size=(3, 3), stride=(1, 1), padding=(1, 1))\n","      )\n","      (norm2): GroupNorm(32, 64, eps=1e-05, affine=True)\n","      (conv2): ConcatConv2d(\n","        (_layer): Conv2d(65, 64, kernel_size=(3, 3), stride=(1, 1), padding=(1, 1))\n","      )\n","      (norm3): GroupNorm(32, 64, eps=1e-05, affine=True)\n","    )\n","  )\n","  (8): GroupNorm(32, 64, eps=1e-05, affine=True)\n","  (9): ReLU(inplace=True)\n","  (10): AdaptiveAvgPool2d(output_size=(1, 1))\n","  (11): Flatten()\n","  (12): Linear(in_features=64, out_features=10, bias=True)\n",")\n","Number of parameters: 208266\n","Number of parameters: 208266\n","Number of parameters: 208266\n","Number of parameters: 208266\n","Number of parameters: 208266\n","Number of parameters: 208266\n"],"name":"stderr"},{"output_type":"stream","text":["Downloading http://yann.lecun.com/exdb/mnist/train-images-idx3-ubyte.gz\n","Downloading http://yan
…
isplayName":"L. Atkins","photoUrl":"","userId":"13582269488947613307"}},"outputId":"e99b8201-546c-478b-b3c1-5fe19c32a2bb"},"source":["%%bash\n","cd '/content/drive/MyDrive/colab_notebooks/NODE_Hessian/MNIST/'\n","ls"],"execution_count":55,"outputs":[{"output_type":"stream","text":["mnist_node.ipynb\n"],"name":"stdout"}]}]}
Namespace(adjoint=False, batch_size=128, data_aug=True, debug=False, downsampling_method='conv', gpu=0, lr=0.1, nepochs=120, network='odenet', save='/content/drive/MyDrive/colab_notebooks/NODE_Hessian/MNIST/experiment_node1', test_batch_size=1000, tol=0.001)
Sequential(
  (0): Conv2d(1, 64, kernel_size=(3, 3), stride=(1, 1))
  (1): GroupNorm(32, 64, eps=1e-05, affine=True)
  (2): ReLU(inplace=True)
  (3): Conv2d(64, 64, kernel_size=(4, 4), stride=(2, 2), padding=(1, 1))
  (4): GroupNorm(32, 64, eps=1e-05, affine=True)
  (5): ReLU(inplace=True)
  (6): Conv2d(64, 64, kernel_size=(4, 4), stride=(2, 2), padding=(1, 1))
  (7): ODEBlock(
    (odefunc): ODEfunc(
      (norm1): GroupNorm(32, 64, eps=1e-05, affine=True)
      (relu): ReLU(inplace=True)
      (conv1): ConcatConv2d(
        (_layer): Conv2d(65, 64, kernel_size=(3, 3), stride=(1, 1), padding=(1, 1))
      )
      (norm2): GroupNorm(32, 64, eps=1e-05, affine=True)
      (conv2): ConcatConv2d(
        (_layer): Conv2d(65, 64, kernel_size=(3, 3), stride=(1, 1), padding=(1, 1))
      )
      (norm3): GroupNorm(32, 64, eps=1e-05, affine=True)
    )
  )
  (8): GroupNorm(32, 64, eps=1e-05, affine=True)
  (9): ReLU(inplace=True)
  (10): AdaptiveAvgPool2d(output_size=(1, 1))
  (11): Flatten()
  (12): Linear(in_features=64, out_features=10, bias=True)
)
Number of parameters: 208266
/content/drive/MyDrive/colab_notebooks/NODE_Hessian/MNIST/mnist_node.ipynb
/content/drive/MyDrive/colab_notebooks/NODE_Hessian/MNIST/mnist_node.ipynb
{"nbformat":4,"nbformat_minor":0,"metadata":{"colab":{"name":"mnist_node.ipynb","provenance":[],"collapsed_sections":[],"mount_file_id":"1sLUaZ_DEMKH30zwclvQKQ2FNZUI_mF3K","au
…
m: DataLoader worker (pid(s) 448, 449) exited unexpectedly"]}]}]}
Namespace(adjoint=False, batch_size=128, data_aug=True, debug=False, downsampling_method='conv', gpu=0, lr=0.1, nepochs=120, network='odenet', save='/content/drive/MyDrive/colab_notebooks/NODE_Hessian/MNIST/experiment_node1', test_batch_size=1000, tol=0.001)
Namespace(adjoint=False, batch_size=128, data_aug=True, debug=False, downsampling_method='conv', gpu=0, lr=0.1, nepochs=120, network='odenet', save='/content/drive/MyDrive/colab_notebooks/NODE_Hessian/MNIST/experiment_node1', test_batch_size=1000, tol=0.001)
Sequential(
  (0): Conv2d(1, 64, kernel_size=(3, 3), stride=(1, 1))
  (1): GroupNorm(32, 64, eps=1e-05, affine=True)
  (2): ReLU(inplace=True)
  (3): Conv2d(64, 64, kernel_size=(4, 4), stride=(2, 2), padding=(1, 1))
  (4): GroupNorm(32, 64, eps=1e-05, affine=True)
  (5): ReLU(inplace=True)
  (6): Conv2d(64, 64, kernel_size=(4, 4), stride=(2, 2), padding=(1, 1))
  (7): ODEBlock(
    (odefunc): ODEfunc(
      (norm1): GroupNorm(32, 64, eps=1e-05, affine=True)
      (relu): ReLU(inplace=True)
      (conv1): ConcatConv2d(
        (_layer): Conv2d(65, 64, kernel_size=(3, 3), stride=(1, 1), padding=(1, 1))
      )
      (norm2): GroupNorm(32, 64, eps=1e-05, affine=True)
      (conv2): ConcatConv2d(
        (_layer): Conv2d(65, 64, kernel_size=(3, 3), stride=(1, 1), padding=(1, 1))
      )
      (norm3): GroupNorm(32, 64, eps=1e-05, affine=True)
    )
  )
  (8): GroupNorm(32, 64, eps=1e-05, affine=True)
  (9): ReLU(inplace=True)
  (10): AdaptiveAvgPool2d(output_size=(1, 1))
  (11): Flatten()
  (12): Linear(in_features=64, out_features=10, bias=True)
)
Sequential(
  (0): Conv2d(1, 64, kernel_size=(3, 3), stride=(1, 1))
  (1): GroupNorm(32, 64, eps=1e-05, affine=True)
  (2): ReLU(inplace=True)
  (3): Conv2d(64, 64, kernel_size=(4, 4), stride=(2, 2), padding=(1, 1))
  (4): GroupNorm(32, 64, eps=1e-05, affine=True)
  (5): ReLU(inplace=True)
  (6): Conv2d(64, 64, kernel_size=(4, 4), stride=(2, 2), padding=(1, 1))
  (7): ODEBlock(
    (odefunc): ODEfunc(
      (norm1): GroupNorm(32, 64, eps=1e-05, affine=True)
      (relu): ReLU(inplace=True)
      (conv1): ConcatConv2d(
        (_layer): Conv2d(65, 64, kernel_size=(3, 3), stride=(1, 1), padding=(1, 1))
      )
      (norm2): GroupNorm(32, 64, eps=1e-05, affine=True)
      (conv2): ConcatConv2d(
        (_layer): Conv2d(65, 64, kernel_size=(3, 3), stride=(1, 1), padding=(1, 1))
      )
      (norm3): GroupNorm(32, 64, eps=1e-05, affine=True)
    )
  )
  (8): GroupNorm(32, 64, eps=1e-05, affine=True)
  (9): ReLU(inplace=True)
  (10): AdaptiveAvgPool2d(output_size=(1, 1))
  (11): Flatten()
  (12): Linear(in_features=64, out_features=10, bias=True)
)
Number of parameters: 208266
Number of parameters: 208266
/content/drive/MyDrive/colab_notebooks/NODE_Hessian/MNIST/mnist_node.ipynb
{"nbformat":4,"nbformat_minor":0,"metadata":{"colab":{"name":"mnist_node.ipynb","provenance":[],"collapsed_sections":[],"mount_file_id":"1sLUaZ_DEMKH30zwclvQKQ2FNZUI_mF3K","authorship_tag":"ABX9TyPy4w1yrlFYQDGrN0tP3duT"},
…
4m.\\u001b[0m\\u001b[0minfo\\u001b[0m\\u001b[0;34m(\\u001b[0m\\u001b[0margs\\u001b[0m\\u001b[0;34m)\\u001b[0m\\u001b[0;34m\\u001b[0m\\u001b[0;34m\\u001b[0m\\u001b[0m\\n\\u001b[1;32m      5\\u001b[0m \\u001b[0;34m\\u001b[0m\\u001b[0m\\n\",\"\\u001b[0;31mNameError\\u001b[0m: name 'makedirs' is not defined\"]}]}]}\n","Namespace(adjoint=False, batch_size=128, data_aug=True, debug=False, downsampling_method='conv', gpu=0, lr=0.1, nepochs=120, network='odenet', save='/content/drive/MyDrive/colab_notebooks/NODE_Hessian/MNIST/experiment_node1', test_batch_size=1000, tol=0.001)\n","Sequential(\n","  (0): Conv2d(1, 64, kernel_size=(3, 3), stride=(1, 1))\n","  (1): GroupNorm(32, 64, eps=1e-05, affine=True)\n","  (2): ReLU(inplace=True)\n","  (3): Conv2d(64, 64, kernel_size=(4, 4), stride=(2, 2), padding=(1, 1))\n","  (4): GroupNorm(32, 64, eps=1e-05, affine=True)\n","  (5): ReLU(inplace=True)\n","  (6): Conv2d(64, 64, kernel_size=(4, 4), stride=(2, 2), padding=(1, 1))\n","  (7): ODEBlock(\n","    (odefunc): ODEfunc(\n","      (norm1): GroupNorm(32, 64, eps=1e-05, affine=True)\n","      (relu): ReLU(inplace=True)\n","      (conv1): ConcatConv2d(\n","        (_layer): Conv2d(65, 64, kernel_size=(3, 3), stride=(1, 1), padding=(1, 1))\n","      )\n","      (norm2): GroupNorm(32, 64, eps=1e-05, affine=True)\n","      (conv2): ConcatConv2d(\n","        (_layer): Conv2d(65, 64, kernel_size=(3, 3), stride=(1, 1), padding=(1, 1))\n","      )\n","      (norm3): GroupNorm(32, 64, eps=1e-05, affine=True)\n","    )\n","  )\n","  (8): GroupNorm(32, 64, eps=1e-05, affine=True)\n","  (9): ReLU(inplace=True)\n","  (10): AdaptiveAvgPool2d(output_size=(1, 1))\n","  (11): Flatten()\n","  (12): Linear(in_features=64, out_features=10, bias=True)\n",")\n","Number of parameters: 208266\n"],"name":"stderr"},{"output_type":"error","ename":"KeyboardInterrupt","evalue":"ignored","traceback":["\u001b[0;31m---------------------------------------------------------------------------\u001b[0m","\u001b[0;31mKeyboardInterrupt\u001b[0m                         Traceback (most recent call last)","\u001b[0;32m/c
…
